{
    "graph_0": {
        "_type": "graph",
        "format": "torch",
        "nodes": [
            {
                "name": "sp",
                "id": 120686872784,
                "class_name": "SplitBrain(\n  (ch2_net): SimpleAE(\n    (encoder): Sequential(\n      (0): Conv2d(2, 12, kernel_size=(4, 4), stride=(2, 2), padding=(1, 1))\n      (1): BatchNorm2d(12, eps=1e-05, momentum=0.1, affine=True, track_running_stats=True)\n      (2): ReLU()\n      (3): Conv2d(12, 24, kernel_size=(4, 4), stride=(2, 2), padding=(1, 1))\n      (4): BatchNorm2d(24, eps=1e-05, momentum=0.1, affine=True, track_running_stats=True)\n      (5): ReLU()\n      (6): Conv2d(24, 48, kernel_size=(5, 5), stride=(1, 1))\n      (7): BatchNorm2d(48, eps=1e-05, momentum=0.1, affine=True, track_running_stats=True)\n      (8): ReLU()\n      (9): Conv2d(48, 96, kernel_size=(5, 5), stride=(1, 1))\n      (10): BatchNorm2d(96, eps=1e-05, momentum=0.1, affine=True, track_running_stats=True)\n      (11): ReLU()\n      (12): Conv2d(96, 100, kernel_size=(5, 5), stride=(1, 1))\n    )\n  )\n  (ch1_net): SimpleAE(\n    (encoder): Sequential(\n      (0): Conv2d(1, 12, kernel_size=(4, 4), stride=(2, 2), padding=(1, 1))\n      (1): BatchNorm2d(12, eps=1e-05, momentum=0.1, affine=True, track_running_stats=True)\n      (2): ReLU()\n      (3): Conv2d(12, 24, kernel_size=(4, 4), stride=(2, 2), padding=(1, 1))\n      (4): BatchNorm2d(24, eps=1e-05, momentum=0.1, affine=True, track_running_stats=True)\n      (5): ReLU()\n      (6): Conv2d(24, 48, kernel_size=(5, 5), stride=(1, 1))\n      (7): BatchNorm2d(48, eps=1e-05, momentum=0.1, affine=True, track_running_stats=True)\n      (8): ReLU()\n      (9): Conv2d(48, 96, kernel_size=(5, 5), stride=(1, 1))\n      (10): BatchNorm2d(96, eps=1e-05, momentum=0.1, affine=True, track_running_stats=True)\n      (11): ReLU()\n      (12): Conv2d(96, 100, kernel_size=(5, 5), stride=(1, 1))\n    )\n  )\n)",
                "parameters": [
                    [
                        "ch2_net.encoder.0.weight",
                        [
                            12,
                            2,
                            4,
                            4
                        ]
                    ],
                    [
                        "ch2_net.encoder.0.bias",
…
